LSTM_Swarm_predPos/model.onnx (onnx, 10559 bytes, 5 tensors)

linear.bias f4 [3]
000000 65 f8 56 3e f1 17 33 3e d5 b9 4f 3e
       0.20993192 0.17489602 0.20285733

onnx::LSTM_96 f4 [1, 80, 6]
000000 1b 35 db 3d da c1 6a 3d e0 41 11 be f9 e5 cb be
       0.107034884 0.057313778 -0.14185286 -0.39823893
000010 d7 7d a3 3e 48 cb a9 3e 40 17 c6 be 95 4d 6d 3e
       0.31931946 0.33162904 -0.38689613 0.23174126
000020 43 e2 90 3e ce 0a 31 3c 23 3e 14 be db 4c 87 3b
       0.28297624 0.010805799 -0.14476828 0.004129035
000030 b9 f7 6b bf 6f bc f0 bd e3 40 36 bc ae 13 a2 bd
       -0.9217487 -0.11754691 -0.011123869 -0.0791391
000040 fe 22 95 be 90 42 b5 be 55 d4 b3 bc ec 8c 0d bf
       -0.2912826 -0.35402346 -0.021951834 -0.55293155
000050 f9 95 5b 3e 5c 19 a2 be 27 26 4c bc 22 bd a8 bd
       0.21443929 -0.31659973 -0.012460268 -0.08239199
000060 2e 0d 14 3f 01 e0 79 bd 27 8e f3 bd 1d 9f 52 3e
       0.5783261 -0.061004642 -0.11892348 0.2056851
000070 0b f5 93 be 71 71 e4 3e 50 f0 e7 bd 03 cc c6 bc
       -0.2889789 0.446178 -0.11325133 -0.024267202
000080 e9 2c d0 3e 9b 97 80 3e d2 4f 75 bb 09 59 6e 3e
       0.40659264 0.25115666 -0.003743161 0.23276152
000090 c0 50 89 3d 57 65 0f be 33 25 57 bd dd 0c 19 bf
       0.06704855 -0.14003502 -0.05252571 -0.5978525
0000a0 f0 a6 a3 ba f6 05 bc be 64 c2 93 bf 03 fc 2d be
       -0.0012485664 -0.36723298 -1.1543698 -0.16990666
0000b0 31 61 e1 bd 4f 7c 3f bd 86 cb b9 3e 27 58 7c 3e
       -0.11004866 -0.04674941 0.3628809 0.24643002
0000c0 e3 c5 b2 be 36 ee f0 be ec dc 0e bf 9c a8 46 be
       -0.349166 -0.4705674 -0.5580585 -0.19400257
0000d0 64 16 c3 bd e7 92 0a bf ae 3f 18 3e 80 1b a4 be
       -0.09525755 -0.54130405 0.14868042 -0.3205223
0000e0 f7 25 e3 be f0 06 2d bf b6 6a c4 3e da e9 5c bf
       -0.44364902 -0.6758871 0.38362664 -0.8629433
0000f0 32 48 4a 3f 23 c3 6f 3f 8e 8c 52 3e d3 5b 90 be
       0.7901641 0.9365713 0.2056143 -0.28195056
000100 2e 5b 8a be e6 78 a5 bd 1c af c7 bd 4f fa 45 bf
       -0.2702269 -0.080797 -0.09750196 -0.77335066
000110 6d 08 17 bf 9e b6 e0 bc fa c3 ee bd 9d cb 24 be
       -0.5899723 -0.027430829 -0.11658473 -0.16093297
000120 84 41 35 be c4 77 05 3d cd 87 d9 be 96 d8 14 bf
       -0.17700773 0.03258492 -0.4248642 -0.58142984
000130 65 48 ed bd 5d 04 e9 3e 61 b3 35 be 29 ca 07 bf
       -0.11586074 0.4551114 -0.17744209 -0.53042847
000140 bf ba 8a bf 63 7c cb be 81 42 c5 3d d3 64 68 be
       -1.083824 -0.39743337 0.09631825 -0.22694711
000150 b5 9a 65 3f ef 11 ef be fe cd 67 be d9 ad 6f 3d
       0.8968919 -0.4669337 -0.22637174 0.058515403
000160 f4 f8 e4 3d d9 67 9b be 90 67 0a 3f 01 70 33 3f
       0.111802965 -0.30352667 0.54064274 0.7009278
000170 75 46 fa 3e 29 61 90 3e 85 e0 ad 3e 39 6d 87 3e
       0.4888188 0.28199127 0.33960357 0.26450518
000180 65 c5 97 3d bf 0b 21 bf c3 a9 03 bf cd 34 db bc
       0.07410697 -0.6290855 -0.5143091 -0.026758576
000190 01 e3 1d 3e 38 85 3e bf 80 cc 27 3e 33 3a 1b 3f
       0.15418626 -0.74422026 0.16386604 0.6063568
0001a0 24 a5 cd be f9 c3 06 3f 7b 8c 86 be 56 f7 c8 be
       -0.40165055 0.5264278 -0.26279053 -0.39251202
0001b0 ed 0f 1e bf d9 e5 62 3d 1c ce ab 3d d7 c2 e8 3d
       -0.6174305 0.05539498 0.083889216 0.11365288
0001c0 69 dd 2d be 50 6c de be 5a 1b 2f 3d f9 f1 5c 3d
       -0.16978993 -0.4344201 0.042750694 0.0539417
0001d0 15 2d 5a 3e ad 03 0a 3e 34 36 2c 3f 6b f4 03 be
       0.2130626 0.13477965 0.6727021 -0.12886207
0001e0 75 37 4e 3e 67 df 22 bd 4b 85 ed bd cc 2a a7 be
       0.20138343 -0.039763834 -0.11597689 -0.3264984
0001f0 f2 e2 bc 3d 1b 87 1a 3e 3d 5f 43 bf 80 6e 27 bd
       0.09222974 0.15090601 -0.763172 -0.040876865
000200 ee 2f 8f 3d 17 44 8c be 17 eb 52 be 42 e2 6a be
       0.06991564 -0.27395698 -0.20597492 -0.22937873
000210 ef e5 2c bf 57 60 ad be 12 0e 8a be 64 65 27 bd
       -0.6753835 -0.33862564 -0.2696386 -0.040868178
000220 5e 1e 24 be ad 78 11 bf 76 dc 06 be 27 d1 4b bf
       -0.16027209 -0.5682476 -0.13170037 -0.79616016
000230 cb 24 12 be 21 46 b5 be a5 4e 1c 3e 9d 5c 15 3d
       -0.14271848 -0.35405067 0.15264376 0.036465276
000240 5b ab 89 bf 50 cd 23 be 1f fa a0 3e 35 08 06 be
       -1.0755419 -0.15996289 0.31440827 -0.13089068
000250 0b ef 45 be 41 10 fa 3c ea 5e 02 bf cd 83 ae be
       -0.19329469 0.030525329 -0.5092608 -0.3408493
000260 d1 ed 09 be e5 9e 08 bf ce 22 b9 ba 4d ce f1 3d
       -0.13469626 -0.53367454 -0.0014124752 0.11806927
000270 8f ce a8 bd 5c b8 c2 be b4 e7 2b be 25 f1 e5 be
       -0.08242523 -0.3803128 -0.16787606 -0.4491054
000280 8a 95 73 3e b2 04 e3 be 7b 62 64 bf a5 50 ac bd
       0.23787513 -0.4433952 -0.8921277 -0.08413819
000290 70 51 40 3e 71 a7 e0 3b d6 e8 8b 3d 61 c6 fe 3e
       0.18781066 0.006855898 0.06831519 0.49760726
0002a0 24 1d 9c bd c8 28 d9 be 8b 48 37 bf c6 c2 4c be
       -0.07622746 -0.42413926 -0.71595067 -0.19996175
0002b0 c5 b5 ba bd df cd d3 be 1b 4e b9 bc af 24 ba be
       -0.09116701 -0.41368005 -0.022620251 -0.36356112
0002c0 7f 98 15 bf 52 e1 e6 be 0b c5 d7 3e 23 f8 2d bf
       -0.58435816 -0.4509378 0.4214252 -0.6795675
0002d0 5b 63 2c bf 32 28 8f be 0f c7 c5 bd f0 ee 8b be
       -0.67339104 -0.27960354 -0.09657108 -0.27330732
0002e0 d2 b8 a3 3c 87 0b 52 be 66 11 69 be c8 3a db be
       0.01998559 -0.2051221 -0.22760543 -0.42818284
0002f0 4c 81 3c be 73 fc 87 3e 6e 40 00 bd d9 d6 35 be
       -0.18408698 0.2655979 -0.031311445 -0.17757739
000300 a0 c2 b2 bd 88 65 2e bd 06 75 70 be 96 0f 4a bd
       -0.08728528 -0.042577296 -0.23482141 -0.04933127
000310 b6 cf 03 bf a3 2c b7 3e 65 8d 69 be c1 45 f3 be
       -0.51488817 0.35776243 -0.22807844 -0.47514156
000320 19 56 9b bf 01 e3 eb be 7f fc 5b 3c c0 e1 ff 3d
       -1.213565 -0.46071628 0.013426899 0.1249423
000330 ac 9f 62 3f 60 2d c1 be 4d b0 21 bd 6b a8 85 be
       0.8852489 -0.3772993 -0.039474774 -0.26105055
000340 85 d4 5f 3e 51 80 0d bf c2 7f b6 be f6 cb 86 be
       0.21858414 -0.5527392 -0.35644346 -0.26327485
000350 57 ee bd bc a5 37 93 3d 91 f7 86 3e 9d 4a 70 be
       -0.023184938 0.07188348 0.26360753 -0.23465963
000360 63 11 65 3e f5 3a c9 be 6a ae d0 be e1 10 05 be
       0.22369914 -0.39302793 -0.40758067 -0.1299472
000370 fa fc cc 3e 09 34 ff be d9 ad a3 bd ee d6 64 3f
       0.40036756 -0.49844387 -0.07992143 0.89390457
000380 0a 11 a3 be 05 5b e9 3e c2 84 34 be a1 46 b4 3c
       -0.31848937 0.45577255 -0.17628768 0.022006335
000390 17 7a 72 bf b0 b1 c6 bd 6a 81 37 3e b5 06 7b be
       -0.94717544 -0.0970186 0.17920461 -0.24514277
0003a0 03 ae 64 bd 13 43 b2 be 46 aa f6 be ac 40 5e 3e
       -0.055830013 -0.348168 -0.48176783 0.21704358
0003b0 0a e8 f3 3c b1 3f 8b 3d d3 fd 14 3f 59 38 3a 3d
       0.02977373 0.067992575 0.58199805 0.045463894
0003c0 62 67 7f 3e 4d 70 93 bd 42 3a 04 be e4 a4 55 be
       0.24941781 -0.07199154 -0.12912849 -0.20863682
0003d0 44 e7 6b 3e 9b 1f 94 3e 21 79 20 bf 31 a5 b8 bd
       0.2303744 0.28930363 -0.6268483 -0.09015883
0003e0 88 14 af 3e c6 4d ea bd 6c aa 00 3e d5 fa 06 be
       0.34195352 -0.11440615 0.12565011 -0.13181622
0003f0 39 43 55 bf 13 2e 78 3d 80 fb c0 3c 2c d5 ad 3d
       -0.833057 0.060590815 0.023557425 0.08487925

onnx::LSTM_97 f4 [1, 80, 20]
000000 52 b4 38 3f f2 d1 84 be 52 48 b1 3d 3d a9 9f 3e
       0.72150147 -0.25941426 0.08656372 0.31183806
000010 12 8a b4 3e af 71 90 be 52 64 72 bd e1 36 11 bf
       0.3526159 -0.28211734 -0.059177704 -0.56724364
000020 37 07 48 3f 27 76 12 be 38 bc 51 be c0 d9 ed be
       0.7813601 -0.14302884 -0.20481956 -0.46455193
000030 5a 78 e6 3b 3e 74 9e be 31 62 5d 3e 33 46 ec 3c
       0.00703339 -0.3094806 0.21619488 0.028842067
000040 7d 2d 8e 3e 0e 17 a3 be 3f ad 44 3d 5a af 18 bf
       0.2776908 -0.31853527 0.048016783 -0.59642565
000050 d6 75 0b 3c e6 69 b3 bd db e5 b3 be 14 b5 f7 3d
       0.008511981 -0.08760433 -0.35136303 0.12095085
000060 9d e0 ab bd 66 54 4a be 40 d5 9f be 04 5d 50 be
       -0.08392451 -0.19758758 -0.31217384 -0.20347983
000070 3c 21 15 3e 81 f1 e4 be 3d 7d 10 be 12 39 e9 bd
       0.14563459 -0.44715503 -0.14110275 -0.113878384
000080 43 6b 08 3e f6 37 c1 bc 92 6f 9d bd 8b 8e 42 3d
       0.13322167 -0.023586255 -0.07687296 0.04749922
000090 81 0b ab 3e 4d 9d 62 be af 12 d6 bc 3b 53 a7 be
       0.33407214 -0.22130318 -0.026131956 -0.32680687
0000a0 12 58 4b bf fc 61 f8 3d f4 40 22 be 3e 41 97 be
       -0.7943126 0.12128064 -0.1584509 -0.29541963
0000b0 2c 53 c0 bd c8 40 c9 3d 54 c2 37 3e 15 ac 46 3e
       -0.09390864 0.09826809 0.17945224 0.19401582
0000c0 bb 5f 51 be 07 b2 95 bd c5 6c 97 3d 16 33 84 3d
       -0.20446675 -0.07309347 0.07393793 0.06455056
0000d0 1c 81 1c bf 41 d4 57 3e c7 80 3e be ce 55 8c 3e
       -0.61134505 0.21077062 -0.18603812 0.27409214
0000e0 24 c1 24 be 95 1b 16 bf 5a ea 74 3e 51 1e 1c 3e
       -0.16089302 -0.58635837 0.23917523 0.1524594
0000f0 f7 e5 b1 3d 85 fe 14 3f ea f6 15 bd f3 7c 5b be
       0.086864404 0.58200866 -0.03661243 -0.21434383
000100 a0 e5 5c 3d 34 b2 e6 3d 13 f0 1d 3e 60 e4 f6 bd
       0.053929925 0.11264458 0.15423612 -0.12055278
000110 03 9d d4 bd 55 97 a2 3e 97 50 55 3e 81 b6 1a 3e
       -0.1038151 0.31756082 0.20831524 0.15108682
000120 7c 05 02 3e 1c 83 51 3e f8 2a 50 be 3e 8d 11 3d
       0.12697405 0.2046017 -0.20328891 0.03553509
000130 94 29 80 be 40 e5 11 3d fa d4 8f 3e 42 f7 eb bd
       -0.25031722 0.03561902 0.28092176 -0.1152177
000140 0a af 67 3e 7b f5 ad 3c a0 ad 21 bd 48 3a 2d 3e
       0.22625366 0.021235218 -0.039472222 0.16916764
000150 f4 4e 53 3e 83 09 21 be 0c d0 a2 bd 4e e4 1d 3f
       0.20635587 -0.15726285 -0.07949838 0.6167649
000160 73 bc e1 3d e7 23 d9 be fa f8 1b 3e 1f ea 58 3f
       0.11022272 -0.42410204 0.15231696 0.8473224
000170 d0 40 5e 3e 33 cf b4 3b 8b eb 20 be 9f 43 17 3d
       0.21704412 0.005517864 -0.15714853 0.036929723
000180 a6 e7 4d 3e 84 bc be 3e 3c 75 a2 3d fe 34 0e 3f
       0.20107898 0.372532 0.07932517 0.5554961
000190 ed ca fa be 71 1d 5e 3e 4a 7f 3e 3e a5 e8 bc 3e
       -0.48982945 0.21690919 0.18603244 0.36896244
0001a0 20 d2 71 bd 8f c4 b0 be f0 fc 83 3e 57 75 6d be
       -0.05903828 -0.34524962 0.25778913 -0.23189293
0001b0 a1 7e cd be 78 e6 b0 3e 38 07 5e 3e 6b 8a d8 bd
       -0.40135673 0.34550834 0.21682441 -0.10573276
0001c0 22 78 17 3e 07 6f 28 3e ca a1 a6 3d fa 09 75 be
       0.14791921 0.16448604 0.081363276 -0.23929587
0001d0 bf 09 b6 be f0 47 84 3e 23 d4 59 3e 52 59 ae be
       -0.3555431 0.25836134 0.2127233 -0.3405252
0001e0 b9 72 ba 3d 22 57 45 3e 1e d2 88 3e 9b 0e 18 3d
       0.09103913 0.1927152 0.26722807 0.037123304
0001f0 47 9c ac be bf 5b 01 3e e5 05 71 bf 96 f8 14 3f
       -0.3371298 0.12632655 -0.9414962 0.5819181
000200 1e c4 29 be 64 a1 04 bf 9e cf 53 3e bf 33 92 be
       -0.16578719 -0.5180876 0.20684668 -0.28555104
000210 a4 3e d4 3d 69 7b a3 3e ec 3e ea 3e b3 b9 84 bd
       0.1036351 0.31930092 0.4575113 -0.06480732
000220 ca 78 09 bd e6 5d 55 3c 57 fb 14 be 88 13 c8 3e
       -0.03356246 0.013022875 -0.14549004 0.390774
000230 22 92 d5 be 4e 47 99 3e 1a 2b 9d 3e f3 b1 01 bf
       -0.41713053 0.29937214 0.30696946 -0.50662154
000240 7e 68 51 bd 49 7c 44 3c 58 b1 68 bf 72 a6 23 bf
       -0.051125042 0.0119925225 -0.90895605 -0.6392585
000250 ec bf ef be 17 39 02 3f c3 ac 9c 3e c2 c9 1a bd
       -0.46826112 0.5086836 0.30600557 -0.037790067
000260 43 25 1c bf d4 99 d2 3d be ed 2e 3f 6c b8 9c 3d
       -0.60994357 0.10283247 0.68331516 0.07652363
000270 1a 19 3e be 09 5c 90 3e a6 db b5 bd 6e 12 0e be
       -0.18564263 0.28195217 -0.08879785 -0.13874218
000280 d7 a4 c3 bb f1 eb 84 bd 04 82 33 be 31 6d 96 bd
       -0.005970578 -0.06490315 -0.17530066 -0.07345045
000290 6a ff 52 be e3 0e 0f bd 67 7f 9b be c1 2d f0 3e
       -0.20605245 -0.034926306 -0.30370638 0.46909907
0002a0 ea 1f 0d 3f da 25 f4 be fa 37 87 3e 6b 90 10 bf
       0.5512682 -0.47685128 0.26409894 -0.56470364
0002b0 ef be 8a bd 96 53 7c 3c ea e3 99 3c bf 13 03 3c
       -0.06774699 0.015400788 0.018785436 0.008000313
0002c0 76 92 aa 3e d1 33 8b bf 93 e4 fa 3d 3c 9e 15 3e
       0.33314866 -1.0875188 0.12250628 0.14611143
0002d0 52 37 19 be 1d 8d 2b 3e 43 ac 04 bb 2d 2e 49 3e
       -0.1496251 0.16753049 -0.0020244278 0.19646521
0002e0 cf 90 b1 be 43 ff d3 bb 72 53 ab be 2a 1d 6f 3e
       -0.34680793 -0.0064696386 -0.334621 0.23350969
0002f0 4b 80 7f bf 04 a0 6a 3e 11 fb ce 3e 3e 89 0e be
       -0.99805135 0.22912604 0.40425923 -0.13919541
000300 4b 6e 25 be d5 e5 7c be 95 38 f2 3e ca 26 28 3e
       -0.16155355 -0.24697049 0.47308794 0.16421047
000310 a7 f2 af be 49 3a 23 3e 4b a1 82 3e ea 02 d0 3e
       -0.34364817 0.15940203 0.25513682 0.40627223
000320 37 47 d9 be f1 27 44 be 0c 9c aa 3d e4 18 99 3d
       -0.42437145 -0.19155861 0.08330545 0.07475451
000330 0b 3f f6 3d 4a 89 04 be 55 16 34 bc d5 f9 3f 3f
       0.12023743 -0.12942997 -0.0109916525 0.7499059
000340 ec 1f c4 ba 88 16 32 be fb 80 53 bf 29 db 24 bf
       -0.0014963127 -0.17391407 -0.82618684 -0.6439691
000350 05 85 2a 3f 7f b4 38 3e a0 f8 94 bd 79 5b 8e bf
       0.6660922 0.18037604 -0.07273984 -1.1121665
000360 d8 43 90 3e c7 cf e2 3e 4e 0d fe be 4f f5 e9 3e
       0.2817676 0.44299147 -0.49619526 0.45694968
000370 87 90 7d be 6c 26 3e be 91 04 f2 be 18 ac b8 bc
       -0.24762164 -0.18569344 -0.4726911 -0.022542998
000380 c0 8e 23 be 2f c2 a5 be 4f 4d 41 3d f0 18 a0 be
       -0.15972424 -0.32374713 0.047192868 -0.31269026
000390 08 41 f3 3e 4d 76 98 be c8 91 ed bc ae ef de 3d
       0.47510552 -0.29777756 -0.029000178 0.10885559
0003a0 bb cd c4 be 5d 75 51 bc c3 e6 18 bf 20 f4 c7 3e
       -0.3843821 -0.012784329 -0.59727114 0.3905344
0003b0 8b c1 15 bd ed 52 97 bf b3 89 b3 bd b7 7c 88 be
       -0.03656153 -1.1822182 -0.087664984 -0.2665765
0003c0 5a d4 14 3f 49 b9 dd 3d 22 62 aa 3d 1f 16 9d 3c
       0.5813652 0.10826356 0.083194986 0.019175587
0003d0 44 9a 11 3e 2e be 86 bd b5 26 2c bc 51 76 2d be
       0.14219004 -0.06579243 -0.010507275 -0.16939665
0003e0 d2 ae 82 be b1 43 18 bd 1f e3 08 3e 1f 5b 1c 3d
       -0.25524002 -0.03717393 0.1336789 0.038172837
0003f0 0a dd 75 3e 91 98 3a bf 36 8d a3 be e7 2b 20 3f
       0.24010101 -0.7288905 -0.31943673 0.6256699

onnx::LSTM_98 f4 [1, 160]
000000 ee b4 a0 3d 81 fd b4 3c 33 d8 15 be 1f 2b 82 3e
       0.078470096 0.022093536 -0.14633255 0.25423524
000010 ef 61 fd bc 94 ce e5 3d 9d 35 13 bd 9b d4 45 3c
       -0.030930487 0.11221042 -0.0359398 0.012074615
000020 fc e5 e9 3b 3b 28 94 be 0f f2 14 3d 9e 68 4b be
       0.007138012 -0.28936943 0.036363658 -0.19864127
000030 6d 77 64 3e 79 dc 6e be a8 46 4e be c6 c0 e6 3e
       0.22311182 -0.23326291 -0.2014414 0.4506895
000040 7a 07 9e 3d 25 98 f3 bd 98 fd d1 bd d5 0b 26 3c
       0.0771627 -0.11894254 -0.10253447 0.010134657
000050 c2 30 ae 3e b0 0b bf 3b 00 2e c4 3d 10 79 49 be
       0.34021574 0.0058302507 0.09579086 -0.19675088
000060 fe 62 4e 3d 5b ef 0f be b7 4a 9e 3d d1 0c 05 3c
       0.050387375 -0.1405615 0.077290945 0.008120731
000070 22 ce a8 bd e1 4f 02 be 6f 5d 62 3d d9 e3 f7 3d
       -0.08242442 -0.12725784 0.055264886 0.12104005
000080 44 55 b3 bb b1 d1 7f be 69 d7 7c be 33 73 0a 3e
       -0.005472811 -0.24982335 -0.24691547 0.13520508
000090 88 a7 92 bd 62 b2 44 3d 3a ce 04 be f3 fb 52 3d
       -0.0716086 0.04802168 -0.12969294 0.05150981
0000a0 7e fb 68 3d 1e c7 b1 3d e7 d8 01 be 47 14 6c bb
       0.056880467 0.08680557 -0.12680398 -0.0036022828
0000b0 e5 a9 89 3e ec 9e d7 3e 89 99 cf 3d 44 e0 68 3d
       0.26887432 0.42113435 0.101367064 0.0568545
0000c0 18 8a 11 3e f7 92 88 3e 28 2c fe 3e 02 30 29 3e
       0.14212835 0.26674625 0.49643064 0.1652222
0000d0 b7 67 92 3c 1f 36 12 be 47 81 25 3e 0f b2 41 3e
       0.01787172 -0.14278458 0.16162597 0.1891558
0000e0 a1 bf 88 bd 8c ed c8 bc 99 76 36 3e 3d 92 c5 3e
       -0.06677175 -0.024527334 0.17818679 0.38588133
0000f0 19 33 13 3e ef 9f 31 be 66 93 4d bd b4 18 75 3e
       0.14374961 -0.17346166 -0.0501894 0.23935205
000100 47 2c 55 3e 11 61 09 be a5 37 28 bd f3 59 55 be
       0.20817672 -0.13415934 -0.04106869 -0.20835094
000110 9c 67 0a bb 18 69 d3 3c ca dd 2a be ab f7 df bd
       -0.0021118885 0.025806949 -0.16686168 -0.10935911
000120 4c e3 d7 bd 27 6d 1c be 74 00 8e 3d 2b 5b 5b bd
       -0.105414 -0.15276013 0.0693368 -0.05355374
000130 8a e3 30 3e 6f e1 80 be 48 e8 ec bd 34 ba ed 3c
       0.172743 -0.25171992 -0.11567742 0.029019453
000140 7a b7 93 3e 4b f2 68 3e a1 55 f2 bc e4 ba 20 be
       0.2885092 0.22748677 -0.029581847 -0.15696293
000150 b6 ae 7f 3e a1 0c 46 3e b4 fc 46 bd be 77 95 be
       0.2496899 0.19340755 -0.04858084 -0.2919292
000160 98 d2 df bd 5b 53 4a be f9 3a 11 3e d4 bd 9f bd
       -0.109288394 -0.1975836 0.14182653 -0.07799879
000170 57 5f c5 bc d7 fc 97 3d 21 7c ff bd 55 48 03 3f
       -0.024093313 0.07421272 -0.124748476 0.51282245
000180 34 f9 2c 3d 04 99 ce bd d0 db 9a bd 72 fe e8 3d
       0.042229846 -0.10087779 -0.07561457 0.113766566
000190 6f 10 30 3e ee 6f 11 3e 8e 01 e2 bd f6 d9 25 be
       0.17193769 0.14202854 -0.11035453 -0.16196427
0001a0 b7 58 bf bd 9c de 4d be 73 6a d3 bd 62 ab 18 be
       -0.09343093 -0.2010445 -0.10323038 -0.14909127
0001b0 5f 03 9d 3d dd d2 e0 bd b4 bb 7b 3e 42 47 0c 3d
       0.076666586 -0.10977719 0.24583322 0.034247644
0001c0 04 ad 41 3d 25 fd 02 be c4 08 d7 bc 55 64 59 be
       0.04728414 -0.1279188 -0.026249297 -0.2122968
0001d0 22 14 45 be 11 86 95 bd da e3 85 3d 55 49 e3 bd
       -0.19245961 -0.07300962 0.065376 -0.11097971
0001e0 b9 d8 84 3d c8 49 19 bd 13 08 00 3e cc b5 be bd
       0.06486649 -0.03742388 0.1250308 -0.09312019
0001f0 e9 33 4c 3e 67 c3 d7 3e 0a ee 00 3e 54 af 51 3e
       0.19941677 0.42141268 0.12590805 0.20477039
000200 5d 02 9b 3e 0f 3d 19 3e 86 f2 b6 3e ab bb e3 3d
       0.3027524 0.14964698 0.35731906 0.11119779
000210 f2 fc 5a 3e 9b d3 c4 bd 57 a5 88 3e 78 8d dc 3d
       0.21385553 -0.09610673 0.26688644 0.107691705
000220 a5 a5 04 3e 26 18 63 3d e0 ec 1b 3d a1 eb bc 3e
       0.12953813 0.05544295 0.0380677 0.3689852
000230 e5 6c d7 3d b0 02 b4 bd f8 b4 23 be b2 ed 8d 3e
       0.10518817 -0.08789575 -0.15987003 0.2772041
000240 11 79 5a 3c 6f 61 99 be 26 c9 15 3e 19 2f ee bd
       0.013334529 -0.29957148 0.14627513 -0.11630077
000250 cd e2 51 3e 8c 10 a9 bd 88 1f 42 be c3 55 8e 3c
       0.20496674 -0.08255109 -0.1895734 0.017374879
000260 f1 89 9d 3e 87 15 04 3d a5 62 b8 bd fc de d7 bd
       0.30769303 0.032247093 -0.0900319 -0.10540578
000270 a1 14 b0 3d d3 cf 7d be 82 18 5c 3e fc 6f a8 be
       0.08597685 -0.2478631 0.21493724 -0.32897937

onnx::MatMul_99 f4 [20, 3]
000000 6f 80 cb 3d 80 66 34 ba e5 af c4 3d 8b b1 a5 3d
       0.09936606 -0.0006881729 0.09603862 0.08090504
000010 cd ca e3 be 7d 95 7c be 22 08 87 be f7 bb 9a be
       -0.44490662 -0.246664 -0.26373392 -0.3022153
000020 75 24 18 be 5b 6a 49 3e 80 5f 6d 3c ae 1b 38 3e
       -0.14857657 0.19669478 0.014488101 0.17979309
000030 b9 0e aa 3d b1 9e d5 3e 9a 0b 38 bd 7a 09 3a bd
       0.083035894 0.41722634 -0.04493294 -0.045419194
000040 95 c5 a8 be 24 11 5c be cc 38 11 3e 1c 5f 1f be
       -0.32963243 -0.21490914 0.14181823 -0.15563625
000050 57 d6 b4 3d bd 9c 10 be 0c e3 40 be 4a 10 99 be
       0.088299446 -0.14122291 -0.18836612 -0.2989524
000060 03 c5 ca 3e 7d 32 72 3d 8b c1 7b 3e 9d ab 68 3e
       0.39603433 0.05913018 0.2458555 0.22721715
000070 26 b1 b2 3e 5e c6 48 bd 5f 84 3f be 68 d4 41 bd
       0.3490078 -0.049017303 -0.1870284 -0.047321707
000080 54 7f 22 bc df 8e 96 bc 9d 6c 1d 3e 5b 5c 51 be
       -0.009918053 -0.018378673 0.15373464 -0.20445387
000090 59 33 a7 3e 02 bd 18 3e d0 64 a6 3d 68 43 d6 bd
       0.32656363 0.14915851 0.08124697 -0.104620755
0000a0 43 3e 1f be 75 1e b4 3d a7 9c 0d bd ba d0 d2 3b
       -0.15551095 0.08794872 -0.034573223 0.0064335736
0000b0 54 89 c5 be 3d 58 f3 3d 22 22 6b be 0e 10 9c be
       -0.38581336 0.118820645 -0.2296224 -0.30481
0000c0 27 4c 03 3c f9 88 56 b9 93 0b 74 3e a8 43 ad 3e
       0.008013762 -0.00020459657 0.2383254 0.3384068
0000d0 70 49 fe bd b5 66 9d be 5a 70 d9 3d a5 c4 e6 be
       -0.12416351 -0.30742422 0.106171325 -0.45071903
0000e0 70 df 0d be 6c fb f9 bd 2d 74 2c bd 35 e5 bf be
       -0.13854766 -0.12206158 -0.04210298 -0.3747956
